cnn_timeseries_model.pth (torch, 521244 bytes, 7 tensors)

conv1.weight f4 [32, 1, 3]
000000 fc d0 e6 be 8b a5 54 be 69 0a 30 be f6 83 bd be
       -0.45081317 -0.20766275 -0.17191471 -0.3701474
000010 02 9c ec 3e 03 a9 8e bc 21 4b e0 3e 78 fd c9 3e
       0.46212775 -0.017414575 0.4380732 0.39451194
000020 7d b7 68 bd 22 49 14 3f 41 ca 06 3d 8a 8c 0d 3f
       -0.056815613 0.5792409 0.032907728 0.5529257
000030 95 ff bd 3e 10 f8 a0 3e 90 9a 02 bf 54 b0 0a 3f
       0.37109056 0.31439257 -0.51017094 0.54175305
000040 b8 fe 11 bf ba 03 56 3d 6f 65 af be 28 a1 9a 3d
       -0.57029295 0.052249648 -0.34257075 0.07550269
000050 c5 fe a0 be 28 10 ac 3d 53 90 df be c8 81 0e 3f
       -0.31444374 0.08401519 -0.43664798 0.5566678
000060 39 ff d7 3e 7c d6 fd be ad e6 cb be eb 4a 2a bc
       0.42186907 -0.495777 -0.3982443 -0.010393838
000070 93 12 e0 be 86 af c4 be f0 3d 7c be c0 56 66 be
       -0.4376417 -0.38415164 -0.24633002 -0.2249403
000080 f5 1a e9 3d 55 f8 bb 3e 72 4b dc bd 35 bf e3 be
       0.11382095 0.367129 -0.107565776 -0.44481817
000090 c0 6c 27 bd c3 f2 20 3e 09 ae ee 3e 2e f7 02 3f
       -0.040875196 0.15717606 0.46617153 0.51158416
0000a0 2d b4 39 be 8a e3 f3 be 02 e5 85 3e 1d 2f 83 3e
       -0.18135138 -0.47634536 0.26151282 0.25621882
0000b0 8a 9a d4 be 3f 3a 9a 3d a5 5e 6c be b6 0a 02 3f
       -0.41524154 0.07530641 -0.23082979 0.50797594
0000c0 de 7a fe 3e 3d 72 06 bf 20 29 3c be d0 af f8 bd
       0.49703115 -0.52518064 -0.18375063 -0.121429086
0000d0 d7 bb 4d be 55 01 0a be f5 e8 d3 3e 80 46 dd be
       -0.20091186 -0.1347707 0.4138867 -0.4321785
0000e0 33 e6 cd be 25 6d aa be d9 7a de 3d 55 ec 9d 3e
       -0.4021469 -0.33286396 0.10863275 0.3084437
0000f0 d2 98 66 be 80 71 60 be c0 2a 05 bf 20 6b 8b 3e
       -0.22519234 -0.21918297 -0.52018356 0.27230167
000100 ca c9 42 bc 1a cf 5f 3d 81 da de bd b7 b3 64 3d
       -0.011888931 0.054640867 -0.1088152 0.055835452
000110 4c 96 c2 3e e8 5c 6c 3e 95 a0 23 be 01 b7 c2 3e
       0.38005292 0.23082316 -0.15979226 0.38030246
000120 68 90 bf 3e 22 e2 af 3e 19 d4 90 bc 13 d4 cb 3e
       0.3741486 0.34352213 -0.017679261 0.39810237
000130 ed fa 02 3f c1 1b 01 bf 57 7f 95 be ea b1 c9 be
       0.5116413 -0.50432974 -0.29198715 -0.3939355
000140 a5 a8 d9 be c4 0c 8a 3e 49 3d f5 3d 7a 49 07 bf
       -0.42511478 0.26962864 0.1197458 -0.5284649
000150 6c 97 ae 3d 4a 4d 06 bf 8b 62 89 3e 5d e0 06 bf
       0.08524975 -0.52461684 0.26832995 -0.526861
000160 64 7c 13 3f 69 43 9e 3e 6b 21 93 3e 4e b7 ab 3e
       0.5761168 0.30910805 0.28736433 0.33538288
000170 01 bc e9 be 2f ac 54 be ed 09 11 bf a7 15 12 bf
       -0.45651248 -0.20768808 -0.5665577 -0.5706429

conv1.bias f4 [32]
000000 7a 00 d6 be 5f 78 b2 be b3 5c 82 bd cf aa b6 3d
       -0.4179724 -0.3485746 -0.06365337 0.08919298
000010 60 1a a4 3e 5f 91 eb be 26 c9 f9 bd 51 0e 10 be
       0.32051373 -0.46009347 -0.12196569 -0.14067961
000020 7a ce 70 3d a9 81 88 3d 88 99 70 bd 2e 60 e0 3d
       0.05879066 0.06665356 -0.05874017 0.10955845
000030 1b 2c 00 bf 96 0b 28 3e 4f 88 9a be 95 5a 50 3d
       -0.500673 0.1641067 -0.3018212 0.050867636
000040 ef 80 37 3d df b7 db 3d b0 49 cf 3e b2 aa 25 bc
       0.044800695 0.1072843 0.40485907 -0.010111498
000050 63 13 56 be c6 de 30 3e e2 c0 bb 3e 9b 9f f6 be
       -0.20905833 0.17272481 0.36670595 -0.48168644
000060 77 d2 0d 3f 56 38 45 3e 61 10 08 3f a2 97 a3 be
       0.5539927 0.19259772 0.5314999 -0.31951624
000070 87 60 01 3f 37 24 e3 be 66 2c 04 bf 3a e9 c5 be
       0.50537914 -0.44363567 -0.51630247 -0.386545

conv2.weight f4 [64, 32, 3]
000000 9f bd 68 bd 64 3c dd 3c 6a e6 b1 3d 28 45 c1 bd
       -0.05682146 0.027006336 0.08686526 -0.09437019
000010 49 b7 0f bd da fc 3d 3d 4d 85 b7 3d 0e 3f 1a 3d
       -0.035086904 0.046383716 0.08960972 0.03765779
000020 c7 fb 3c bd 33 6c cc 3c b9 67 8f 3c 6e 96 c6 bb
       -0.04613855 0.024953937 0.017505514 -0.006060413
000030 4d cc 96 3d 6b 80 8b bd 0b 6c 8f 3d ba 37 7f bd
       0.07363186 -0.06811603 0.070030294 -0.062309004
000040 72 76 ca 3d fd ab 16 3d ad 4a cb 3b de 6f 9f bd
       0.09885873 0.036785115 0.0062039704 -0.07785009
000050 43 20 c5 3c 97 f4 8e 3d 84 ac 90 bc cf 7f 77 3d
       0.024063235 0.069802456 -0.017660387 0.060424622
000060 6f 7c f3 3c 95 24 07 3d 0c a8 82 3d 5a 5d 11 3d
       0.02972242 0.03299387 0.06379709 0.035489418
000070 14 04 2f 3d a0 33 66 bc 3d e0 d8 bb 72 8d 60 3b
       0.0427285 -0.014050394 -0.006618528 0.0034263995
000080 55 66 8b bd 02 a0 9e bc 1e 43 c8 bd 0f c6 3a 3d
       -0.06806628 -0.019363407 -0.097784266 0.04559904
000090 ee 7b a0 bd 38 5c 87 bb a8 1f 70 bd f0 c6 6a 3d
       -0.07836138 -0.0041308664 -0.05862394 0.057318628
0000a0 d3 3f 9a bd 4c 25 22 bd 7f 1b 28 bb a6 ad 04 bc
       -0.07531705 -0.03958635 -0.0025651155 -0.008098042
0000b0 eb 30 d0 3d 94 2d 35 3b 0d f0 0d bd 68 25 67 3d
       0.1016558 0.0027645575 -0.03465276 0.056432158
0000c0 f4 7d 26 3d 07 30 4b 3d 00 09 51 3d aa 48 4e 3d
       0.040647462 0.04960635 0.051033974 0.050362267
0000d0 b3 79 67 bc 19 37 5e 3d 0f 2e 96 3d dd d0 96 3d
       -0.014128136 0.054251764 0.07333004 0.07364056
0000e0 71 fd a6 3d c8 98 ac bd 3e 4b d1 3d b4 62 b3 3d
       0.08153809 -0.08427578 0.102194294 0.087590605
0000f0 8c e5 81 3d 68 99 cb bd a4 d9 1e 3d 38 70 52 bd
       0.06342611 -0.09941369 0.038781777 -0.05137655
000100 f6 da 01 bd 51 82 1f bc 09 ca 98 bd ea 34 04 bc
       -0.031702958 -0.00973566 -0.0746041 -0.008069256
000110 d2 fd 81 bd 6a 42 9c 3c f1 2a b2 bd b7 da 53 bd
       -0.063472405 0.019074637 -0.08699597 -0.051722255
000120 7c 34 5d bc 01 db 59 3b 3e b9 45 3d 96 4a 4c 3c
       -0.013501283 0.0033242109 0.048272364 0.012468955
000130 aa 42 42 3d f0 2d 94 3d 4b b5 6b bd 59 b7 6d 3d
       0.047426857 0.072353244 -0.05754594 0.058036182
000140 7c 74 ce bd e7 01 a1 bd a2 0d b4 3c e5 4e 16 3d
       -0.100808114 -0.07861691 0.021979157 0.036696333
000150 dc 6a 9f bd 79 bb 96 bd 03 a6 d2 bd 4f 51 ba 3d
       -0.07784054 -0.07359976 -0.102855705 0.0909754
000160 c8 c6 c7 bd 1c 47 8a bb 78 40 a7 bb 11 00 11 bd
       -0.097547114 -0.0042199027 -0.005104121 -0.035400454
000170 22 1f 8a bd ae 14 b6 3d f3 94 8a bd 99 d2 c5 bd
       -0.06744219 0.08890663 -0.06766691 -0.09659309
000180 89 84 8f bc 4c ae 48 bd 6d 9f 6c 3d 85 2f 2f 3d
       -0.017519252 -0.048994347 0.057769228 0.042769928
000190 67 e0 50 bd ac cb c4 bd 0b 3d 25 bd 6c 66 3f bd
       -0.050995257 -0.0960916 -0.04034142 -0.046728536
0001a0 23 ca 5e 3d dd 72 30 bd a6 ec 6c 3d d0 69 84 bd
       0.05439199 -0.043078292 0.057842873 -0.06465495
0001b0 16 a5 5b 3d a0 af a3 3c 48 fe cb 3c 35 78 5e bd
       0.053624235 0.019981205 0.024901524 -0.054313857
0001c0 d1 6f a1 bd e5 dd 80 3d 84 93 e9 bc 7b b4 21 bd
       -0.078826554 0.06292323 -0.028512724 -0.03947876
0001d0 e6 71 b8 bd 6a be f9 3c 44 97 d8 bb 62 5f 87 ba
       -0.090060994 0.030486304 -0.006609829 -0.0010328109
0001e0 bf fb cc 3d 2e c2 b4 bd e1 d4 fe bc 5e 71 9b 3d
       0.10008954 -0.08826099 -0.031107368 0.075899825
0001f0 b9 95 80 3d 77 19 a0 3d 56 55 20 bc 9b a9 11 bc
       0.06278557 0.07817357 -0.009785971 -0.008890535
000200 b4 60 04 3d 5c e4 41 3c 0b 1c 63 bd f5 43 05 3d
       0.032318786 0.01183423 -0.055446666 0.032535512
000210 6e 19 93 3d 06 85 80 3d 78 5f 11 bd c3 cb c1 bc
       0.07182585 0.06275372 -0.035491437 -0.023656731
000220 96 95 af 3d 8d 1f b1 bc e4 d4 c3 b8 8e 42 2e bd
       0.08573453 -0.02162149 -9.3379786e-05 -0.04254394
000230 14 eb c8 3c 34 b0 9d 3d e4 b4 17 3d cf 03 06 3d
       0.024526156 0.07699624 0.037037745 0.032718476
000240 45 c3 b7 38 90 e6 a5 3d 28 11 a1 3d 9b 6d d0 3d
       8.762492e-05 0.08100617 0.078646004 0.101771556
000250 77 60 b0 3d b8 28 b8 bd fa a8 8d bc a2 da 93 bd
       0.08612149 -0.089921415 -0.017292488 -0.07219435
000260 da 04 c8 bd 25 40 33 3d 7d 4a ba bd e3 46 ca 3d
       -0.0976655 0.043762345 -0.09096239 0.09876802
000270 6c 37 68 bd f0 7f 8f bd e1 60 c6 3d 99 d2 22 bd
       -0.05669348 -0.07006824 0.09686447 -0.039751623
000280 f6 19 97 bc 8a ae 32 3c c2 3b c9 3c 16 8e 8d 3c
       -0.018444996 0.010905871 0.024564628 0.017279666
000290 e6 12 62 3d 78 6f 39 3c b1 bc ca 3d 04 66 ab 3d
       0.055193804 0.01131808 0.09899271 0.08369067
0002a0 58 74 9e 3c a9 84 d0 bd 8a 26 ea 3c 15 08 07 bd
       0.019342586 -0.10181553 0.02858283 -0.032966692
0002b0 f1 9e e2 bc 72 c7 7e bd b6 70 4e bc e8 c7 d0 bd
       -0.02766368 -0.062201925 -0.012600115 -0.10194379
0002c0 c2 06 05 3d 3b e7 f3 bb 58 76 7e 3c 7c 22 b8 3d
       0.032477148 -0.0074433363 0.015531145 0.089909524
0002d0 cb e7 85 3d af a3 24 3d 47 db c1 3b d3 25 d7 3c
       0.065383516 0.040195163 0.0059160325 0.026263153
0002e0 ca 26 7d 3d 37 35 56 bd e1 68 85 3c 7e 6c c7 3d
       0.06180457 -0.052296843 0.016285362 0.0973749
0002f0 5c da c9 bd f7 0d 4b 3d 5e 41 86 bd 72 0f e1 3c
       -0.09856102 0.049573865 -0.065554366 0.027473185
000300 88 ed 92 3d 1a f3 76 3d 75 4d 83 3c 02 ac fc bc
       0.07174212 0.060290433 0.016028145 -0.030843738
000310 48 05 9d 3d 4c 24 cb bd 62 cc e5 bb 6f 77 cb bd
       0.07667023 -0.099190325 -0.0070128897 -0.099348895
000320 70 d4 a7 3d a2 aa 89 bd fa 02 a3 bc 32 cf b9 bd
       0.08194816 -0.06721999 -0.01989888 -0.090727225
000330 d2 9b 46 bb 51 9a 6f 3c c8 f0 d0 3c f6 5e 55 bc
       -0.0030305278 0.014624194 0.025505438 -0.013023129
000340 f6 1f 9e 3b ca e2 b4 3c c1 c4 95 3d 62 ab c3 3d
       0.0048255874 0.022080798 0.073129185 0.09554173
000350 cf da 9f b8 19 99 bb 3d 15 72 a4 bd dd 58 1e bc
       -7.622467e-05 0.091600604 -0.08029572 -0.009664741
000360 cb b8 ae bd 5a 9e a9 3d 83 14 3f bd 9a b6 e7 bb
       -0.0853134 0.08282156 -0.04665042 -0.0070713283
000370 0a 57 94 3c 55 c3 ac bd 22 85 b4 bd f8 21 aa 3b
       0.01810791 -0.08435694 -0.088144556 0.0051920377
000380 cd e8 65 bc 69 60 a7 bc 85 2a 89 bd 1a 7b 0f 3b
       -0.014032555 -0.020431714 -0.06697563 0.0021893443
000390 69 9c 92 3d cd 8e df bb 72 59 9b bd b3 30 d4 3d
       0.07158739 -0.006822443 -0.0758542 0.10360851
0003a0 37 2e 9f bc be 74 a2 bd 8c 5b 40 3d fc 98 0b bd
       -0.019431217 -0.07932423 0.046962306 -0.034081444
0003b0 a5 78 a6 bd 8a 12 c7 bd 04 19 b8 bc 64 c1 4d bd
       -0.0812848 -0.09720333 -0.022472866 -0.05023326
0003c0 9c 09 17 3c 66 37 69 3d 49 99 eb bc 3d 9c 88 bd
       0.0092186 0.056937598 -0.028759615 -0.06670425
0003d0 32 69 3a 3d 3c b8 a7 3d b9 4d 27 3d 34 67 57 3d
       0.04551048 0.08189437 0.040845606 0.052588657
0003e0 b4 72 16 3c 9c 9d 58 bd 4d b1 89 3d 88 10 fe 3b
       0.009182621 -0.052884683 0.067232706 0.0077534355
0003f0 62 3a 63 3d 7d a0 65 3d 9f 7a 30 bd 0d 17 48 bb
       0.0554756 0.056061257 -0.04308569 -0.0030531317

conv2.bias f4 [64]
000000 70 4f 85 3d b7 64 90 bc 65 04 6e 3b be cd 5a 3d
       0.06509292 -0.01762615 0.0036318537 0.053418867
000010 2e 3f 16 3c 62 36 01 bd c9 ec 10 bd 28 07 20 bd
       0.009170337 -0.031546004 -0.035382066 -0.039069325
000020 94 4b 7f bd bf a8 c4 3c c8 df ce 3d ca 59 8b bd
       -0.062327936 0.024006246 0.10101277 -0.06804235
000030 a8 37 c9 3c e4 26 86 bb 0f c5 a8 bc 8a 2b a6 3d
       0.024562672 -0.0040939916 -0.020601777 0.08113773
000040 62 8e 9f 3c d2 62 89 3d 56 ce b0 bd ec 06 8f bd
       0.019477073 0.067083016 -0.086331055 -0.06983742
000050 74 20 cf 3c 18 9f c5 bd cc 24 6c bb f6 0c 2b bd
       0.02528403 -0.09649485 -0.0036032675 -0.041760407
000060 83 ed 6f 3d 55 08 3f 3d 05 aa c0 bd 8c 2f 92 3d
       0.05857612 0.046638805 -0.09407429 0.07137975
000070 68 b2 bb bd b5 90 14 bd 15 c6 95 bd 98 f3 67 3d
       -0.09164888 -0.036270816 -0.07313172 0.056628793
000080 e5 af c1 bd cb 17 9b bd b6 fb ad bd 7a d8 0c 3d
       -0.09457377 -0.075728975 -0.08495276 0.034386136
000090 f7 fc 98 3d b0 e0 9a 3d b9 58 ef 3b 95 86 c6 bc
       0.07470124 0.07562387 0.0073042777 -0.024234096
0000a0 a7 81 0a 3d 38 aa 90 3d f9 72 bd 3d 3c d7 15 bd
       0.033815052 0.07063717 0.09250445 -0.036582217
0000b0 ac e2 30 bd 61 2f c3 3d 2b 37 91 bd 96 3a 29 3c
       -0.04318492 0.09530521 -0.070906006 0.010328909
0000c0 f5 82 41 3d eb 5c 08 bd 88 4a 77 bc fa 6d 10 bc
       0.04724403 -0.03329174 -0.015093453 -0.008815283
0000d0 e3 63 f5 bc 8c 91 14 3d 16 d1 d0 bd 5a 01 41 bd
       -0.029954856 0.036271617 -0.1019613 -0.04712043
0000e0 52 8c 84 3d 71 39 b0 3d 14 08 44 3d ff 07 38 3d
       0.064720765 0.08604706 0.047859266 0.0449295
0000f0 94 c0 88 bd 6e 42 47 bd 8d ba 30 bd 6f aa 76 3d
       -0.06677356 -0.048647337 -0.04314666 0.060221132

fc1.weight f4 [128, 960]
000000 12 3e e2 bc be f5 c4 3b 86 33 d1 3c 8a 30 a6 bb
       -0.027617488 0.00601074 0.025537264 -0.0050717043
000010 b3 99 35 bc 5a dd 41 bc a9 02 61 bc 81 6d 54 3c
       -0.011084008 -0.0118325595 -0.013733544 0.012965561
000020 da 77 05 3c a2 c7 83 3c 86 7b c3 bb 94 d5 1d bc
       0.008146251 0.016086403 -0.005965653 -0.0096334405
000030 dd d1 dc 3c b7 59 7d 3c 72 ad 98 bb 88 68 94 3c
       0.02695554 0.015463284 -0.004659348 0.01811625
000040 b6 a4 b6 3c 24 d4 c0 bc 4f 44 84 bc 59 91 6a bc
       0.022295337 -0.023538657 -0.016145853 -0.01431688
000050 00 e1 5e bc e4 5b 93 b9 bb 83 63 bb 35 02 93 3c
       -0.013603449 -0.0002810649 -0.0034715969 0.017945388
000060 21 03 a5 3c c4 1e b7 bc 03 1c f0 3c 9f 1b 91 3c
       0.020143094 -0.022353537 0.029310232 0.017713366
000070 9a 87 be 3c 7c fb 40 3c 4a 74 76 bb b1 10 ab 3c
       0.02325802 0.011778709 -0.0037605935 0.020881983
000080 a5 74 7f 3c 45 8f d5 bb 2a 50 98 3a 1c d3 23 3a
       0.015591775 -0.006517323 0.001162057 0.00062494143
000090 d3 3b fd bb fc ba 75 bc ce 2a 8e bc 97 14 43 3c
       -0.007728079 -0.014998194 -0.017354395 0.0119067645
0000a0 e3 30 94 bc 38 09 fb bc 8a 11 28 bc d9 09 4f 3c
       -0.018089717 -0.030644044 -0.010258088 0.012636625
0000b0 65 94 cf bc ad a0 af bc e8 86 0b bd 1d ef 55 bc
       -0.025339315 -0.02143892 -0.034064204 -0.013057497
0000c0 0a be da 38 4e e4 41 bc c0 ab 7f 3c 48 e9 12 3c
       0.000104304476 -0.011834217 0.015604913 0.008966751
0000d0 19 43 92 3b c7 1a c9 3b 31 f9 97 3b 24 13 01 3c
       0.004463565 0.0061372253 0.00463786 0.007878099
0000e0 5b 4f ef ba 1e a8 f4 bc f2 94 ce bb 73 8a 01 bd
       -0.0018257903 -0.02986532 -0.0063043768 -0.031626176
0000f0 d0 b3 cc 3c 21 cc c3 3a 2a 27 46 bc 57 59 a9 3b
       0.024988085 0.0014938154 -0.012094298 0.005168121
000100 b2 30 3f 3c 30 cf 4f 3c ea c9 a4 3c 1b 11 b3 3c
       0.011669325 0.012683675 0.020115811 0.021858742
000110 5a 74 9e 3b 2b 28 9d bc 84 e3 86 bb 50 51 51 bc
       0.0048356475 -0.019184193 -0.0041164774 -0.012775734
000120 1f d1 80 3c 74 45 ba bc cc 06 e4 3b 98 32 a6 3c
       0.015724717 -0.022738196 0.006958818 0.020287797
000130 56 3d 7d 3c 4c 52 cb 3c b8 7a bd 3c dd b2 ec 3c
       0.015456518 0.024819516 0.023129806 0.028893882
000140 ee 40 a0 3b 69 8d 4b bc 52 ec 9d bc 9a 5d aa 3b
       0.0048905527 -0.0124238515 -0.019277725 0.0051991465
000150 a1 8d c2 3c 0d 87 03 3d 73 ab 5c bc 69 4e 66 3c
       0.023749175 0.032111216 -0.013468611 0.01405678
000160 31 dc 9f bc d8 3c a1 bc 7e 00 2e bc c0 9a 02 bd
       -0.019514175 -0.019682333 -0.0106202345 -0.031885862
000170 50 57 88 3b c9 e7 2e 3c 43 67 dc bb f4 ee ba bc
       0.004160799 0.010675379 -0.006726177 -0.02281902
000180 c3 04 17 3c 28 a6 87 bc 93 5a ef bc 42 76 2c 3c
       0.009217444 -0.016558722 -0.029217994 0.010526242
000190 57 f5 e1 bc ce e2 09 bd 92 91 84 3c ce b0 0e bd
       -0.027582807 -0.033663563 0.016182695 -0.034836583
0001a0 34 99 85 b8 82 f7 cf bc 2b 0b a7 3c 25 42 10 bc
       -6.3704705e-05 -0.025386576 0.020391067 -0.008804833
0001b0 23 c6 39 bb 95 3d 56 bb 27 bc 81 3c 01 91 02 bd
       -0.0028346858 -0.0032690514 0.015836788 -0.031876568
0001c0 3a b4 a5 bc d0 f6 31 bc 9f 95 00 bc 91 53 b5 bc
       -0.02022754 -0.010862067 -0.007848172 -0.022134574
0001d0 7e 8f 08 bd ea 2c e0 3c a8 00 12 bc 0f e8 d9 3c
       -0.03333997 0.027365167 -0.008911289 0.026599912
0001e0 57 63 7b ba 9f af 95 bb c9 fb 14 bc ca 92 e0 bc
       -0.0009589693 -0.004568055 -0.009093233 -0.027413744
0001f0 f4 66 dc 3c fc 57 d8 bb 29 a0 3f 3c e7 44 a8 bb
       0.02690456 -0.0066022854 0.0116959 -0.005135167
000200 95 15 32 bc 47 60 98 3c 5a 19 9c 3c 1f 8e f8 bc
       -0.010869403 0.018600596 0.019055057 -0.030341206
000210 b4 c1 01 bd f4 96 cf 3c 95 1e e7 3c e8 69 a3 3c
       -0.03167887 0.025340535 0.028212825 0.019947961
000220 79 57 f0 3b a8 1f 01 3d d5 7b 3f bb de f8 15 bc
       0.0073346463 0.03152433 -0.0029218097 -0.009153573
000230 15 2e 04 3d 16 79 7c bc df e8 00 bd 75 69 db bb
       0.03227051 -0.0154097285 -0.031472083 -0.006695921
000240 b5 f0 a9 ba 90 dc 66 bb 81 95 7c 3c 4f fc 7a bc
       -0.0012965413 -0.003522668 0.015416504 -0.015318944
000250 31 25 52 bc 72 66 a8 bc 82 84 60 3c 3a 60 0e 3c
       -0.01282625 -0.020556662 0.013703467 0.008689934
000260 1c c3 65 bc e1 41 e0 3b 3d 95 57 bb 61 16 a1 bc
       -0.0140235685 0.006843791 -0.003289535 -0.019663991
000270 eb 4f ea bc 5d 82 a1 bc f2 60 d5 bc d4 1f ec 3c
       -0.028602561 -0.019715482 -0.026047204 0.02882377
000280 97 1a 28 bb 57 07 b0 3c 0e da f6 bc 82 2a d6 3c
       -0.0025650614 0.021487875 -0.030133273 0.026143316
000290 0e fb b5 bb 1d fd 02 bd 82 0e dd bc 13 1e e5 3b
       -0.0055536097 -0.03197967 -0.026984457 0.0069921105
0002a0 9d 1e 1a 3c cb 48 cb 3b c5 ea 9a bc ba 1c e7 ba
       0.009406713 0.006203746 -0.018910775 -0.0017632463
0002b0 72 ae db bc f3 5c 19 3b 60 4c d8 3c 1f 81 c5 3b
       -0.02681658 0.002340135 0.026403606 0.0060273553
0002c0 74 f3 b4 3c 14 01 97 3c ef ba f9 bc a4 cf c2 bc
       0.022088744 0.018433131 -0.030484645 -0.023780651
0002d0 a6 95 90 3c 0a be e2 bc d2 c3 49 bc 92 4e 94 bb
       0.017649483 -0.027678508 -0.012314754 -0.004525968
0002e0 0d c1 9d 3c 40 c5 aa b9 66 5d 8b bc 3e f8 cf 3c
       0.019257093 -0.0003257189 -0.01701231 0.025386926
0002f0 47 61 a8 3c a7 83 75 bc ec f8 30 bc f1 2a 12 bc
       0.020554198 -0.014985002 -0.010801535 -0.008921371
000300 6d 8c 40 bc 1a 20 6f bc 58 e1 d5 3b 2a 82 39 3b
       -0.01175223 -0.014595056 0.006527107 0.0028306344
000310 65 b7 2d ba 83 43 69 bc 66 91 73 bc f3 0a fd bc
       -0.0006626754 -0.014237287 -0.014866209 -0.03088901
000320 9a 46 47 bb 1a 4c 1f bc ab a4 c8 3b 27 7c 72 3c
       -0.0030407072 -0.009722734 0.0061231456 0.014800108
000330 05 dd 05 bd 58 aa 06 bd ec 82 a8 ba 9f d1 85 bc
       -0.032681484 -0.032877296 -0.00128564 -0.016335307
000340 40 3a e8 bc b9 e1 c0 bb 61 6e 96 3c 10 2a 74 bc
       -0.028348088 -0.0058862832 0.01836318 -0.014902607
000350 9b 09 01 bd 3b bf b3 3c 6c 5a c6 bc 66 23 1f bc
       -0.0315033 0.021941772 -0.024213038 -0.0097130295
000360 d8 aa 66 3c fc 9d 1b 3c a3 58 c5 bc 85 89 e7 bc
       0.014078818 0.009498116 -0.024090117 -0.028263817
000370 fb 9a 49 3b c1 b8 a2 bc b1 84 b1 3c e6 f1 e2 3b
       0.0030762542 -0.019863488 0.021669718 0.006925809
000380 59 20 a1 bc f7 ac 3c bc 61 52 1b 3c 0d 61 b7 3c
       -0.019668745 -0.011515847 0.00948009 0.022385145
000390 1f 3e 11 bd 63 ee ff bc f8 5b e1 3c 3c 06 13 bd
       -0.035459634 -0.031241601 0.027509674 -0.035894617
0003a0 4f 68 28 bc 4d dd a8 3b ec 52 27 3c 1f 4a 74 bc
       -0.010278775 0.0051533342 0.010212641 -0.01491025
0003b0 01 7c a8 3c f1 d8 07 bd a4 7b 3e 3c 44 15 18 ba
       0.020566942 -0.033165876 0.011626158 -0.00058015087
0003c0 ed 27 d8 3c 1d e4 c7 bb de 62 7c bc ab 6a c8 bb
       0.026386226 -0.0061001913 -0.015404431 -0.0061162314
0003d0 87 10 e0 3c fa 22 ba 3c bd be 2c 3c 5c b6 ab bc
       0.02735163 0.022721756 0.010543522 -0.02096098
0003e0 1a 78 c2 ba 71 f1 65 3c e8 4c bd bc 54 b7 51 3c
       -0.0014836818 0.014034615 -0.02310796 0.0128000565
0003f0 4d f3 da 3c b2 f3 a4 bc fc 65 47 3b f3 92 3d 3c
       0.026727343 -0.020135734 0.0030425778 0.01157068

fc1.bias f4 [128]
000000 0c d5 c0 bc 78 58 d7 3c 94 b6 aa ba 3e 46 b6 bc
       -0.023539089 0.026287302 -0.0013024383 -0.022250291
000010 c7 78 e0 bc 3a bb 75 3c 89 56 56 bc 19 35 48 bc
       -0.027401341 0.014998252 -0.013082155 -0.012219691
000020 97 eb 06 bd b8 2e 27 3c 96 8c b8 3c c2 d1 94 bc
       -0.03293952 0.01020401 0.022527974 -0.018166427
000030 c3 c5 ca 3c 84 22 a5 ba ca e6 bc bc 32 e1 57 bc
       0.024752503 -0.0012598787 -0.023059268 -0.013176249
000040 e4 11 49 3c 51 16 d9 bc 0d 03 a6 3c 9d f7 76 38
       0.012272332 -0.0264999 0.020265127 5.888158e-05
000050 7b b4 94 bc 2f 19 5d 3c b5 a3 f1 bb eb 0f b7 3c
       -0.018152466 0.013494774 -0.0073742517 0.022346457
000060 bb 03 88 3c 0e 4f 3c bc 77 96 f5 3b a9 94 51 bc
       0.016603341 -0.0114934575 0.0074947434 -0.012791791
000070 fd bb 48 bb bb 70 20 ba 69 2e 18 bc 7e 50 5d bc
       -0.0030629628 -0.0006120314 -0.009288409 -0.01350796
000080 12 b7 cd bc 73 0a f0 3c f1 c5 f2 bc 48 ec 57 bc
       -0.025111709 0.029301858 -0.029635401 -0.013178892
000090 ee 4b 33 bc a9 b8 90 bc 56 c1 3f 3b 54 fb bd ba
       -0.010943396 -0.017666178 0.0029259524 -0.0014494457
0000a0 9e 9e c5 bc e3 63 09 bb c5 d5 73 3a bb c5 6a 3b
       -0.024123486 -0.0020964078 0.00093015685 0.0035823423
0000b0 9a 95 10 3c 1f 98 c3 bb 46 6e b6 3b 52 61 65 3b
       0.00882473 -0.005969062 0.005567345 0.0035000634
0000c0 9e 09 da 3c 2f 16 a6 3b 17 e0 45 3c e5 15 2f 3c
       0.026615914 0.0050685625 0.012077353 0.010686372
0000d0 94 c1 d6 3c c8 df 91 bc bc 08 73 bc b8 5e c6 3c
       0.026215352 -0.017806903 -0.014833625 0.024215087
0000e0 27 f1 ee 3c 21 14 4e 3c 64 6b a2 bc 28 f2 c0 3c
       0.029167725 0.012578041 -0.019826598 0.02355297
0000f0 63 ff 5f 3c 99 75 c7 3c c4 bf 86 bb 77 3a 53 bc
       0.013671729 0.024348067 -0.0041122157 -0.012892357
000100 63 47 5a 3c a0 b4 d9 bc 3d b3 02 3d b7 58 02 bd
       0.013322684 -0.026575387 0.031909216 -0.031822886
000110 74 46 4f 3c 84 f2 d8 bb 48 f2 c1 bc d3 f2 96 bb
       0.012651075 -0.006620707 -0.023675099 -0.0046065836
000120 f3 c8 62 3c 37 5f cd 3c 9e 59 ca 3c 24 10 b0 3c
       0.013841855 0.025069816 0.024700936 0.021492071
000130 ff 27 aa bc 95 20 34 3b 2f 3b c7 bc 33 ce b0 3b
       -0.020771025 0.002748524 -0.024320213 0.0053956746
000140 99 20 5b 3b 7b e2 72 bc 5e c1 d2 bc 4d bf e9 bb
       0.0033436178 -0.014824505 -0.02572697 -0.0071334005
000150 ac 85 f4 bc 77 7a 0b bd 64 d4 e5 bb aa 89 a6 bb
       -0.029848896 -0.03405234 -0.0070138443 -0.005082329
000160 ae 5c e0 3c f9 bd d5 3b 27 6b ae 3c 8a 0e 0a bd
       0.027387943 0.0065228906 0.021291329 -0.03370527
000170 38 28 e6 3c da f7 4c bb 5a 16 e2 bc 08 88 03 3d
       0.02809535 -0.003127566 -0.027598549 0.03211215
000180 a8 46 55 3c e0 74 fc 3c 99 7b b6 bc 71 0d f4 bc
       0.013017334 0.03081745 -0.022275733 -0.029791566
000190 10 7f 2b 3a e4 29 34 bc 03 5a f5 3c 8d b0 67 bc
       0.0006542066 -0.010996316 0.029950147 -0.014141214
0001a0 d0 67 e5 3c fb 56 c2 3c d6 30 41 bc 48 f5 b7 3a
       0.028003603 0.023723116 -0.011791429 0.0014034892
0001b0 06 28 a2 bc f4 38 92 bc f6 85 8a 3a 3f a8 5e bb
       -0.019794475 -0.017849423 0.0010568488 -0.0033974794
0001c0 56 e4 06 39 96 c9 0e bd 46 8f ff bc cb 99 aa bc
       0.00012864298 -0.034860216 -0.031196248 -0.020825287
0001d0 7f 21 90 3c 62 e9 95 bc 16 14 07 bc 34 65 ee bb
       0.017594097 -0.018299762 -0.008244535 -0.007275248
0001e0 85 fd c7 bc d3 00 bf bc ca 34 04 bd 0c 94 b3 3c
       -0.02441288 -0.023315823 -0.032276906 0.02192118
0001f0 29 77 39 3a 14 e2 c3 bc 77 75 07 bc 12 9e f0 bc
       0.0007074946 -0.023911513 -0.008267752 -0.029372249

fc2.weight f4 [1, 128]
000000 c4 3b 3c 3a 62 72 98 3d c5 20 5d bc 5a 2c 3d 3d
       0.00071805366 0.07443692 -0.013496582 0.046184875
000010 f2 eb 5c 3d 56 54 ea 3c ea 69 21 3d df 3e 07 3d
       0.053935952 0.028604668 0.03940765 0.033018943
000020 d2 ef 48 bd b0 97 2a 3d 6a f9 1e bd 3f 2c e9 3c
       -0.049056835 0.041648567 -0.03881208 0.028463481
000030 49 94 89 3b 26 83 a8 bd bb 11 96 3c 98 e3 12 bd
       0.004198585 -0.082281396 0.018319001 -0.03586158
000040 06 44 86 3d 0c e5 8b bd 5f da 8c 3d 37 fc 74 bc
       0.06555943 -0.068307966 0.068775885 -0.014952711
000050 e4 88 a7 3c d8 2e 09 3d 06 94 92 3d 82 79 e8 3c
       0.020451017 0.03349194 0.071571395 0.028378252
000060 ac 68 80 bb 2a 38 1f bd 57 11 8d bd be fd a6 3d
       -0.003918728 -0.03887192 -0.06888073 0.08153866
000070 5b ac ad bc 62 74 31 bc 8f 98 ab bd 5b 5a 7f bd
       -0.02120035 -0.0108309705 -0.083787076 -0.06234203
000080 02 55 c6 bc 0f f3 65 3d 90 9e 3a 3c 7c 06 84 bd
       -0.024210457 0.056140002 0.011390343 -0.06446549
000090 43 3f 08 3d cf b6 46 bd 35 b3 16 bd 7f 5c e8 3c
       0.033263456 -0.048514184 -0.036792 0.028364418
0000a0 8b 0c ae bc 5e 09 f7 3a 4a e6 d2 3c 62 54 60 b7
       -0.021246215 0.0018847396 0.025744576 -1.3371087e-05
0000b0 39 4b a4 3d b0 62 f4 bc 56 11 92 3d 97 19 43 bc
       0.0802216 -0.029832214 0.07132213 -0.011907957
0000c0 65 61 69 bd 02 0b 04 3c 8e 0e b6 bc b1 c6 54 bd
       -0.05697765 0.008059265 -0.022223737 -0.0519473
0000d0 ee 57 ab 3b 0d 9a 8b 3d d9 53 33 bb b7 88 ad 3d
       0.005228988 0.06816492 -0.002736321 0.08473342
0000e0 00 ad 5d 3d 71 2b 01 3d cf 7e 21 3d d6 d2 49 3d
       0.054120064 0.03153557 0.039427575 0.049273334
0000f0 c7 4e 4a 3c 23 fc 0e bd c5 28 2e bd 2a 2e c9 3c
       0.012347884 -0.034908425 -0.04251935 0.024558146
000100 b0 80 60 bd cd f3 b2 bd 34 52 ab 3d 20 4a 48 bc
       -0.054810226 -0.087379076 0.083652884 -0.012224704
000110 2f 42 9c 3c 37 fb 90 3c 4a 4e 87 bc b0 35 a3 3d
       0.019074528 0.017697914 -0.016516823 0.079692245
000120 c2 2f 9c 3c d2 7b 09 3d 0f 4d aa bc 0c 49 38 3d
       0.019065741 0.03356535 -0.020788698 0.044991538
000130 06 e3 ae b8 95 66 6d 3d a8 1a a5 bd 24 5c a9 3c
       -8.339253e-05 0.057959158 -0.08061725 0.020673819
000140 49 13 98 bc 73 2e 9e 3b 04 f1 08 3d c4 41 a2 3d
       -0.018563883 0.0048273145 0.033432975 0.079227
000150 65 74 81 bd a1 1c 3d bd 7a 82 ef bb 23 65 85 3d
       -0.063210286 -0.04616988 -0.007309255 0.06513431
000160 00 b8 49 bc 80 83 b2 3d 77 fb 1e bd 4e 8b 89 bd
       -0.012311935 0.08716488 -0.038814034 -0.067160234
000170 6a 2c 9e 3d a9 d3 46 3c 24 c6 a3 bd 8c ab 95 3d
       0.07723315 0.012135425 -0.07996777 0.073081106
000180 37 15 d2 3c 46 ff 82 3c 01 3c 4a bd b2 8f 72 bd
       0.025644882 0.015990864 -0.04937363 -0.05921907
000190 2a 7b a3 bc d5 8d 74 bd b0 ab 47 3c 9b de 15 3d
       -0.01995619 -0.059705574 0.01218693 0.036589246
0001a0 cf 21 98 3c f1 32 3c 3d 5a f8 8c bd b3 46 20 bd
       0.018570809 0.04594702 -0.06883307 -0.039129924
0001b0 22 fa 4a 3d 66 08 88 3d bb 7d 90 bd c8 07 da 3c
       0.04955495 0.06642227 -0.07055231 0.026615039
0001c0 32 76 72 3d 68 05 c8 3a ec 3e 94 bd c4 61 f1 bc
       0.05919475 0.00152604 -0.07238564 -0.029465564
0001d0 c2 06 f2 3c 47 ad 5c bc cd 43 98 bb a7 71 a1 bd
       0.029544238 -0.013469047 -0.0046467544 -0.078830056
0001e0 de 3e ab bd 90 23 eb bc e0 0a 79 3d 75 5e 0c bc
       -0.083616 -0.028703481 0.060801387 -0.008567442
0001f0 6d 11 43 3d 97 fd 2a 3d 0e e9 9c 3d b3 95 ae 3d
       0.04762404 0.04174575 0.07661639 0.085246466
